…
Pad Temporal  4
Pad Temporal  4
Nh  8
Dv  0.25
Dk  0.25
Pad Temporal  4
Pad Temporal  0
Nh  8
Dv  0.25
Dk  0.25
Pad Temporal  4
Nh  8
Dv  0.25
Dk  0.25
Pad Temporal  4
Pad Temporal  4
Pad Temporal  4
Pad Temporal  4
Nh  8
Dv  0.25
Dk  0.25
Pad Temporal  4
Pad Temporal  0
Nh  8
Dv  0.25
Dk  0.25
Pad Temporal  4
Nh  8
Dv  0.25
Dk  0.25
Pad Temporal  4
Nh  8
Dv  0.25
Dk  0.25
Pad Temporal  4
Pad Temporal  0
Nh  8
Dv  0.25
Dk  0.25
Pad Temporal  4
Nh  8
Dv  0.25
Dk  0.25
Pad Temporal  4
self.backbone:  ModuleList(
  (0): TCN_GCN_unit(
    (gcn1): unit_gcn(
      (conv_list): ModuleList(
        (0): Conv2d(128, 128, kernel_size=(1, 1), stride=(1, 1))
        (1): Conv2d(128, 128, kernel_size=(1, 1), stride=(1, 1))
        (2): Conv2d(128, 128, kernel_size=(1, 1), stride=(1, 1))
      )
      (bn): BatchNorm2d(128, eps=1e-05, momentum=0.1, affine=True, track_running_stats=True)
      (relu): ReLU()
    )
    (tcn1): Unit2D(
      (conv): Conv2d(128, 128, kernel_size=(9, 1), stride=(1, 1), padding=(4, 0))
      (bn): BatchNorm2d(128, eps=1e-05, momentum=0.1, affine=True, track_running_stats=True)
      (relu): ReLU()
      (dropout): Dropout(p=0.5, inplace=False)
    )
  )
  (1): TCN_GCN_unit(
    (gcn1): unit_gcn(
      (conv_list): ModuleList(
        (0): Conv2d(128, 128, kernel_size=(1, 1), stride=(1, 1))
        (1): Conv2d(128, 128, kernel_size=(1, 1), stride=(1, 1))
        (2): Conv2d(128, 128, kernel_size=(1, 1), stride=(1, 1))
      )
      (bn): BatchNorm2d(128, eps=1e-05, momentum=0.1, affine=True, track_running_stats=True)
      (relu): ReLU()
    )
    (tcn1): Unit2D(
      (conv): Conv2d(128, 128, kernel_size=(9, 1), stride=(1, 1), padding=(4, 0))
      (bn): BatchNorm2d(128, eps=1e-05, momentum=0.1, affine=True, track_running_stats=True)
      (relu): ReLU()
      (dropout): Dropout(p=0.5, inplace=False)
    )
  )
  (2): TCN_GCN_unit(
    (gcn1): unit_gcn(
      (conv_list): ModuleList(
        (0): Conv2d(128, 128, kernel_size=(1, 1), stride=(1, 1))
        (1): Conv2d(128, 128, kernel_size=(1, 1), stride=(1, 1))
        (2): Conv2d(128, 128, kernel_size=(1, 1), stride=(1, 1))
      )
      (bn): BatchNorm2d(128, eps=1e-05, momentum=0.1, affine=True, track_running_stats=True)
      (relu): ReLU()
    )
    (tcn1): Unit2D(
      (conv): Conv2d(128, 128, kernel_size=(9, 1), stride=(1, 1), padding=(4, 0))
      (bn): BatchNorm2d(128, eps=1e-05, momentum=0.1, affine=True, track_running_stats=True)
      (relu): ReLU()
      (dropout): Dropout(p=0.5, inplace=False)
    )
  )
  (3): TCN_GCN_unit(
    (gcn1): gcn_unit_attention(
      (relu): ReLU()
      (data_bn): BatchNorm1d(3350, eps=1e-05, momentum=0.1, affine=True, track_running_stats=True)
      (bn): BatchNorm2d(256, eps=1e-05, momentum=0.1, affine=True, track_running_stats=True)
      (attention_conv): spatial_attention(
        (qkv_conv): Conv2d(134, 384, kernel_size=(1, 1), stride=(1, 1))
        (attn_out): Conv2d(256, 256, kernel_size=(1, 1), stride=(1, 1))
      )
    )
    (tcn1): Unit2D(
      (conv): Conv2d(256, 256, kernel_size=(9, 1), stride=(2, 1), padding=(4, 0))
      (bn): BatchNorm2d(256, eps=1e-05, momentum=0.1, affine=True, track_running_stats=True)
      (relu): ReLU()
      (dropout): Dropout(p=0.5, inplace=False)
    )
    (down1): Unit2D(
      (conv): Conv2d(134, 256, kernel_size=(1, 1), stride=(2, 1))
      (bn): BatchNorm2d(256, eps=1e-05, momentum=0.1, affine=True, track_running_stats=True)
      (relu): ReLU()
      (dropout): Dropout(p=0, inplace=False)
    )
  )
  (4): TCN_GCN_unit(
    (gcn1): gcn_unit_attention(
      (relu): ReLU()
      (data_bn): BatchNorm1d(6400, eps=1e-05, momentum=0.1, affine=True, track_running_stats=True)
      (bn): BatchNorm2d(256, eps=1e-05, momentum=0.1, affine=True, track_running_stats=True)
      (attention_conv): spatial_attention(
        (qkv_conv): Conv2d(256, 384, kernel_size=(1, 1), stride=(1, 1))
        (attn_out): Conv2d(256, 256, kernel_size=(1, 1), stride=(1, 1))
      )
    )
    (tcn1): Unit2D(
      (conv): Conv2d(256, 256, kernel_size=(9, 1), stride=(1, 1), padding=(4, 0))
      (bn): BatchNorm2d(256, eps=1e-05, momentum=0.1, affine=True, track_running_stats=True)
      (relu): ReLU()
      (dropout): Dropout(p=0.5, inplace=False)
    )
  )
  (5): TCN_GCN_unit(
    (gcn1): gcn_unit_attention(
      (relu): ReLU()
      (data_bn): BatchNorm1d(6400, eps=1e-05, momentum=0.1, affine=True, track_running_stats=True)
      (bn): BatchNorm2d(256, eps=1e-05, momentum=0.1, affine=True, track_running_stats=True)
      (attention_conv): spatial_attention(
        (qkv_conv): Conv2d(256, 384, kernel_size=(1, 1), stride=(1, 1))
        (attn_out): Conv2d(256, 256, kernel_size=(1, 1), stride=(1, 1))
      )
    )
    (tcn1): Unit2D(
      (conv): Conv2d(256, 256, kernel_size=(9, 1), stride=(1, 1), padding=(4, 0))
      (bn): BatchNorm2d(256, eps=1e-05, momentum=0.1, affine=True, track_running_stats=True)
      (relu): ReLU()
      (dropout): Dropout(p=0.5, inplace=False)
    )
  )
  (6): TCN_GCN_unit(
    (gcn1): gcn_unit_attention(
      (relu): ReLU()
      (data_bn): BatchNorm1d(6400, eps=1e-05, momentum=0.1, affine=True, track_running_stats=True)
      (bn): BatchNorm2d(512, eps=1e-05, momentum=0.1, affine=True, track_running_stats=True)
      (attention_conv): spatial_attention(
        (qkv_conv): Conv2d(256, 768, kernel_size=(1, 1), stride=(1, 1))
        (attn_out): Conv2d(512, 512, kernel_size=(1, 1), stride=(1, 1))
      )
    )
    (tcn1): Unit2D(
      (conv): Conv2d(512, 512, kernel_size=(9, 1), stride=(2, 1), padding=(4, 0))
      (bn): BatchNorm2d(512, eps=1e-05, momentum=0.1, affine=True, track_running_stats=True)
      (relu): ReLU()
      (dropout): Dropout(p=0.5, inplace=False)
    )
    (down1): Unit2D(
      (conv): Conv2d(256, 512, kernel_size=(1, 1), stride=(2, 1))
      (bn): BatchNorm2d(512, eps=1e-05, momentum=0.1, affine=True, track_running_stats=True)
      (relu): ReLU()
      (dropout): Dropout(p=0, inplace=False)
    )
  )
  (7): TCN_GCN_unit(
    (gcn1): gcn_unit_attention(
      (relu): ReLU()
      (data_bn): BatchNorm1d(12800, eps=1e-05, momentum=0.1, affine=True, track_running_stats=True)
      (bn): BatchNorm2d(512, eps=1e-05, momentum=0.1, affine=True, track_running_stats=True)
      (attention_conv): spatial_attention(
        (qkv_conv): Conv2d(512, 768, kernel_size=(1, 1), stride=(1, 1))
        (attn_out): Conv2d(512, 512, kernel_size=(1, 1), stride=(1, 1))
      )
    )
    (tcn1): Unit2D(
      (conv): Conv2d(512, 512, kernel_size=(9, 1), stride=(1, 1), padding=(4, 0))
      (bn): BatchNorm2d(512, eps=1e-05, momentum=0.1, affine=True, track_running_stats=True)
      (relu): ReLU()
      (dropout): Dropout(p=0.5, inplace=False)
    )
  )
  (8): TCN_GCN_unit(
    (gcn1): gcn_unit_attention(
      (relu): ReLU()
      (data_bn): BatchNorm1d(12800, eps=1e-05, momentum=0.1, affine=True, track_running_stats=True)
      (bn): BatchNorm2d(512, eps=1e-05, momentum=0.1, affine=True, track_running_stats=True)
      (attention_conv): spatial_attention(
        (qkv_conv): Conv2d(512, 768, kernel_size=(1, 1), stride=(1, 1))
        (attn_out): Conv2d(512, 512, kernel_size=(1, 1), stride=(1, 1))
      )
    )
    (tcn1): Unit2D(
      (conv): Conv2d(512, 512, kernel_size=(9, 1), stride=(1, 1), padding=(4, 0))
      (bn): BatchNorm2d(512, eps=1e-05, momentum=0.1, affine=True, track_running_stats=True)
      (relu): ReLU()
      (dropout): Dropout(p=0.5, inplace=False)
    )
  )
)
199507
199507
199507
750508
768384
768384
2967296
3044096
3044096
Pad Temporal  4
Params:  14034732
Layer params:  14034732
[ Fri Feb 23 12:20:21 2024 ] Parameters:
{'val_split': 0.2, 'data_dir': None, 'log_dir': './checkpoints/prova20', 'exp_name': '
…
